models/3waypoint_model.onnx (onnx, 65738 bytes, 12 tensors)

policy.log_std f4 [2]
1.8349218 -0.9034471
00000000: b8de ea3f 4f48 67bf

policy.mlp_extractor.policy_net.0.weight f4 [64, 47]
-0.034154523 0.08084637 0.29311183 0.2540992 -0.12087583 -0.018365769 0.16180149 0.011121239
-0.15282573 0.06751118 0.18731788 -0.11486225 -0.08461108 -0.07584151 0.018619837 -0.35920572
-0.3604828 -0.19895692 -0.35150704 -0.061849814 0.13489556 -0.04254461 0.028324604 -0.37876195
0.16118452 -0.36601436 -0.05292286 0.012676282 -0.33717415 0.18309373 -0.120106064 -0.05655004
-0.27015737 0.13341567 0.1481696 0.030678429 -0.091778815 0.05047068 -0.27287835 -0.25680918
-0.28614622 0.39286345 -0.079847634 -0.0025959436 -0.06987974 0.2541599 -0.26318383 0.27580824
-0.07581297 0.04715595 -0.08409484 0.17709121 0.37782925 -0.07451341 -0.018964315 -0.044593167
0.12580885 0.0754922 -0.32835424 0.12056385 -0.03966431 0.07481381 -0.10015237 0.11212264
-0.14373931 -0.16543023 0.28417847 0.2027443 0.019458951 -0.36637244 -0.06363935 -0.101421416
-0.12743348 0.14340419 0.07255851 0.14666463 0.046526566 0.3342668 0.121999495 0.0054558744
-0.26307148 0.15140621 -0.23561066 0.027119538 0.0772979 0.14797443 0.21499053 0.13688976
0.2679168 0.041367296 0.3756239 0.19611342 -0.013439459 -0.4115241 -0.19980057 0.10699723
-0.25156876 -0.06729959 -0.19172361 -0.29466498 -0.07003528 0.23388116 -0.19321041 -0.2022747
0.09617268 -0.20044445 0.3484727 -0.2709941 0.003058568 -0.044809733 -0.12304378 -0.008979004
0.05584931 -0.1993052 -0.16829154 -0.31488883 -0.059930585 0.10358446 -0.08949254 -0.06873751
-0.2468229 0.037445255 -0.049828462 0.2654776 -0.02039455 0.1709088 -0.0758745 0.11937089
0.2298203 -0.059224535 -0.20281996 0.31445614 0.0006970134 -0.1191719 -0.122999385 -0.005287926
-0.13325171 -0.1947442 0.32277963 -0.55037713 0.07809317 -0.23940253 0.40191945 -0.11414501
-0.04930118 -0.06163176 0.11790341 -0.19977413 0.1149432 0.08153367 0.05860583 0.3014783
0.30928177 0.10557892 0.009904671 -0.0017869773 0.27758628 -0.090268314 0.31283078 0.019995194
0.3296262 -0.0943133 0.010243773 0.13691017 -0.02436622 0.057832364 0.1950671 -0.21048822
0.19953938 0.22986527 0.20488785 0.002840846 -0.044748582 0.043816153 0.066341385 0.0068396125
0.116967246 0.19788031 0.19493292 -0.21966195 0.25483948 -0.0507619 0.47937334 0.13496695
-0.06661295 0.06297797 0.20078412 -0.16190846 0.011577907 0.079986736 -0.23445132 0.17573091
0.36479732 0.16138723 -0.07434557 0.0084851775 0.11205091 -0.33846077 -0.09592365 0.03214598
-0.02720195 0.23282905 0.35358137 -0.06376975 -0.041339915 -0.02222515 0.012589647 -0.14366801
-0.26393372 -0.23397692 0.24802071 0.04889968 0.11163192 0.07171706 -0.19855289 0.1707927
-0.011218382 -0.11480357 -0.13851236 -0.23082745 -0.13955355 -0.4724494 0.17571655 0.19234034
-0.020237349 0.17864905 -0.06604783 -0.121038064 0.28100502 -0.23642497 -0.14284171 0.005544128
0.09438837 0.04285018 -0.32864064 -0.058901135 0.07179617 -0.482913 0.1464489 -0.027022813
-0.09370917 0.2325803 0.18680379 -0.07287636 -0.16716823 -0.23846966 0.17177199 -0.17523795
0.45861703 0.09423077 0.2114931 -0.21219067 -0.011622258 -0.097005755 -0.17705497 -0.3787451
00000000: 9de5 0bbd c892 a53d c112 963e 4a19 823e
00000010: bf8d f7bd cf73 96bc 4aaf 253e db35 363c
00000020: 597e 1cbe 4d43 8a3d 42d0 3f3e e63c ebbd
00000030: 9348 adbd cb52 9bbd a188 983c d0e9 b7be
00000040: 3491 b8be 5dbb 4bbe bbf8 b3be 3b56 7dbd
00000050: 1022 0a3e 4243 2ebd 0009 e83c 16ed c1be
00000060: 8e0d 253e 3c66 bbbe a4c5 58bd 2eb0 4f3c
00000070: 17a2 acbe ec7c 3b3e 2bfa f5bd 04a1 67bd
00000080: 1152 8abe 1e9e 083e c6b9 173e 5451 fb3c
00000090: 88f6 bbbd 58ba 4e3d b6b6 8bbe 7e7c 83be
000000a0: c281 92be 6625 c93e 2887 a3bd b520 2abb
000000b0: 1c1d 8fbd 3f21 823e 08c0 86be bd36 8d3e
000000c0: d543 9bbd 9926 413d ea39 acbd 6657 353e
000000d0: d672 c13e 7d9a 98bd 0d5b 9bbc 53a7 36bd
000000e0: 09d4 003e a89b 9a3d 0c1e a8be 2eea f63d
000000f0: 0b77 22bd fc37 993d b01c cdbd 8ea0 e53d
00000100: 6630 13be 8b66 29be d77f 913e 349c 4f3e
00000110: 6168 9f3c 2b95 bbbe 5955 82bd 08b6 cfbd
00000120: ec7d 02be 8cd8 123e 8e99 943d 412f 163e
00000130: a492 3e3d 0525 ab3e dfda f93d 31c7 b23b
00000140: 4eb1 86be 3b0a 1b3e ec43 71be cb29 de3c
00000150: 5d4e 9e3d 9c86 173e 7a26 5c3e d42c 0c3e
00000160: 642c 893e c170 293d c751 c03e f5d1 483e
00000170: 2d31 5cbc 49b3 d2be 8598 4cbe 5d21 db3d
00000180: 9fcd 80be 5ed4 89bd 3253 44be 54de 96be
00000190: a86e 8fbd 8b7e 6f3e f3d8 45be 1921 4fbe
000001a0: 2ff6 c43d 4f41 4dbe 046b b23e bdbf 8abe
000001b0: 4272 483b 698a 37bd 61fe fbbd ac1c 13bc
000001c0: 3fc2 643d aa16 4cbe 9e54 2cbe 1c39 a1be
000001d0: c679 75bd 1724 d43d dd47 b7bd 40c6 8cbd
000001e0: 24bf 7cbe 3260 193d ee18 4cbd aeec 873e
000001f0: 7912 a7bc b702 2f3e 1764 9bbd ba78 f43d
00000200: 0356 6b3e 6d95 72bd 09b0 4fbe 6500 a13e
00000210: c7b7 363a 6610 f4bd 1ae7 fbbd 5746 adbb
00000220: 2373 08be 066b 47be 5f43 a53e 84e5 0cbf
00000230: 50ef 9f3d f025 75be 63c8 cd3e dcc4 e9bd
00000240: 09f0 49bd 9671 7cbd 5877 f13d 9791 4cbe
00000250: 5767 eb3d 20fb a63d ab0c 703d 5d5b 9a3e
00000260: 2e5a 9e3e c339 d83d 3447 223c 0239 eaba
00000270: ca1f 8e3e 98de b8bd 5b2b a03e f6cc a33c
00000280: c4c4 a83e 5527 c1bd 80d5 273c 2e32 0c3e
00000290: ab9b c7bc a1e1 6c3d abbf 473e 398a 57be
000002a0: 0d54 4c3e cd61 6b3e 1fce 513e 7d2d 3a3b
000002b0: 4a4a 37bd 9178 333d fedd 873d d41e e03b
000002c0: 868c ef3d 23a1 4a3e 7f9c 473e 10ef 60be
000002d0: 527a 823e b6eb 4fbd 6c70 f53e c734 0a3e
000002e0: 5f6c 88bd 98fa 803d 5a9a 4d3e 55cb 25be
000002f0: 43b1 3d3c 16d0 a33d 0214 70be cef2 333e
00000300: b7c6 ba3e b242 253e 7d42 98bd 6a05 0b3c
00000310: f37a e53d bb4a adbe 9e73 c4bd 81ab 033d
00000320: a0d6 debc bd6a 6e3e 9e08 b53e b799 82bd
00000330: 0b54 29bd 8511 b6bc cf44 4e3c b51d 13be
00000340: 5222 87be a597 6fbe 24f9 7d3e 084b 483d
00000350: 479f e43d 65e0 923d 7351 4bbe 48e4 2e3e
00000360: 4ecd 37bc 221e ebbd 2fd6 0dbe 085e 6cbe
00000370: 20e7 0ebe e3e4 f1be 0aef 333e def4 443e
00000380: ccc8 a5bc c7ef 363e 1644 87bd cee2 f7bd
00000390: e4df 8f3e 6319 72be 1945 12be 84ab b53b
000003a0: b14e c13d ac83 2f3d 9643 a8be 5142 71bd
000003b0: df09 933d 5f40 f7be b3f6 153e f25e ddbc
000003c0: 98ea bfbd 8829 6e3e 7e49 3f3e 3340 95bd
000003d0: 262e 2bbe 6431 74be ffe4 2f3e 9471 33be
000003e0: dacf ea3e 10fc c03d a691 583e 8348 59be
000003f0: 496b 3ebc f4aa c6bd e64d 35be e1ea c1be

policy.mlp_extractor.policy_net.0.bias f4 [64]
-0.005373395 -0.022155413 -0.010692967 0.016969046 -0.02056493 -0.021398189 -0.02321895 -0.0055700326
0.011407426 -0.0032335613 -0.040126007 0.027583279 -0.043603383 -0.02614126 -0.01250034 -0.012242803
-0.043309093 -0.0030939272 0.01908222 -0.00041814585 0.00041163134 -0.024294186 0.0301052 0.08565644
-0.010692063 0.035272896 0.0070036324 0.023343535 -0.008490643 0.003932333 -0.023275306 -0.070259884
0.024642859 0.0055642184 -0.00040794557 0.01222483 0.022709081 -0.013605302 -0.019898236 0.031951662
-0.011307042 -0.045465495 0.0006864335 -0.07041783 0.004455584 -0.04084255 0.027930977 -0.041367438
0.015484909 0.007094539 0.010962434 0.023583954 -0.019388733 -0.038190626 0.0038103657 -0.012343316
4.8987702e-05 0.016896848 0.009669312 -0.014279138 0.022528425 0.06982375 -0.04390754 -0.066765994
00000000: 4e13 b0bb 457f b5bc 8e31 2fbc ab02 8b3c
00000010: c977 a8bc 414b afbc ab35 bebc d284 b6bb
00000020: 36e6 3a3c 28ea 53bb 2b5b 24bd 54f6 e13c
00000030: 7699 32bd 3226 d6bc 3ace 4cbc 0a96 48bc
00000040: e064 31bd 7cc3 4abb 5152 9c3c 963a dbb9
00000050: 39d0 d739 9a04 c7bc 2e9f f63c a56c af3d
00000060: c32d 2fbc 507a 103d ba7e e53b f13a bf3c
00000070: 571c 0bbc cdda 803b dbab bebc 6ae4 8fbd
00000080: d2df c93c 0c54 b63b 87e1 d5b9 a74a 483c
00000090: 6508 ba3c c6e8 5ebc a001 a3bc bfdf 023d
000000a0: 2c41 39bc 073a 3abd c6f1 333a 3937 90bd
000000b0: 2600 923b 854a 27bd 81cf e43c e770 29bd
000000c0: 6ab4 7d3c 4e79 e83b c89b 333c 2333 c13c
000000d0: 1fd5 9ebc c66d 1cbd 54b7 793b 9f3b 4abc
000000e0: 2578 4d38 426b 8a3c 096c 1e3c 0cf3 69bc
000000f0: 888d b83c c1ff 8e3d 65d8 33bd 9cbc 88bd

policy.mlp_extractor.policy_net.2.weight f4 [64, 64]
-0.18513483 -0.23847502 -0.15121837 -0.2054589 0.00600098 0.09362885 -0.43760383 -0.24261098
0.20835266 -0.22797368 -0.1275761 -0.15896343 0.22246787 -0.08460204 0.08662417 -0.21410206
-0.038127273 0.13937712 -0.030095434 0.23075733 0.12522493 -0.37752438 -0.024490599 -0.16439255
0.09668853 -0.28898308 -0.046289865 0.0024499958 0.124910764 0.17420813 0.046667136 0.05918152
-0.08656854 -0.080444716 0.03322833 -0.13084783 -0.18683304 0.21045947 -0.35254312 -0.6804687
-0.3386735 -0.02626065 -0.10739151 -0.04064259 -0.27686554 -0.02534126 -0.20385607 0.14910974
0.032605916 -0.07009749 0.0030495091 -0.26910147 0.07821023 -0.06567057 -0.18519701 0.22837995
-0.2408575 0.11932335 -0.25399244 0.0025285948 -0.21847613 0.025439652 -0.078861505 -0.24959105
0.05486214 0.028114622 -0.13405591 -0.087859444 -0.28265744 0.11566382 0.089836985 0.22849555
0.031472646 -0.04184337 0.2446799 0.33823526 0.13249868 0.014379583 0.08079181 0.1134446
0.15409727 -0.056400057 0.058913913 0.20799963 -0.018373977 0.07598056 -0.029141294 -0.06535123
0.40828252 -0.3018864 0.04781749 -0.26024637 0.045516063 -0.14278072 -0.23533027 0.13863225
-0.1051634 -0.40193865 0.08547015 0.009989097 -0.1426565 0.08605663 0.0906658 -0.047798734
0.22045203 -0.12855037 -0.12470448 -0.25749436 -0.4061401 0.23118262 -0.030613262 -0.23774976
-0.18269342 -0.043576818 0.04589894 0.11946852 0.22822513 -0.05528241 -0.28544047 0.09900828
-0.14106992 0.021012332 -0.17594816 -0.14418249 -0.2094106 0.124110535 0.19649148 0.33906695
-0.06315648 0.027029846 -0.0006245148 -0.180799 0.08688455 -0.1074265 0.24381022 -0.2523981
-0.1053943 -0.06010509 0.45560485 0.082921736 -0.011970146 0.12524451 0.1246494 0.12802035
-0.1488595 -0.042619396 0.4536913 0.27037537 0.21217152 -0.16222821 0.10933721 0.0676081
-0.14748724 -0.03163543 0.12315169 -0.10896495 0.23281057 0.33961093 0.07218023 -0.0028338523
-0.56253743 -0.16074944 0.023362245 -0.05156151 -0.27623966 0.07659534 0.072096154 0.31647924
-0.25872016 0.20690672 -0.003868666 -0.1086447 0.33150366 0.14509852 -0.028897317 -0.1646156
-0.08494678 0.19346905 0.16199073 0.039701875 -0.09983923 -0.10074763 0.04416434 -0.09041699
-0.14050956 0.09061716 -0.06937832 0.1519569 0.010107487 0.0908582 -0.25740805 -0.029644726
0.043950494 0.28949836 0.015285559 -0.12026678 0.11664223 -0.32760525 0.267454 0.07216084
-0.4442161 0.34464243 -0.2272535 -0.11498349 -0.019437114 -0.10449068 0.15963776 -0.3768974
-0.27607107 0.17803243 -0.23065141 0.27614197 -0.21603495 -0.06984097 0.26218888 -0.07185459
0.09564081 -0.053184632 0.18329403 -0.059144285 0.13524324 0.02258451 0.23770386 0.041986097
-0.1105722 -0.04098287 -0.076987356 -0.0697805 -0.07862146 -0.31881112 -0.046661068 0.07897955
0.10474533 0.010673316 -0.06656801 -0.103699125 -0.30619514 0.21676604 0.3319078 -0.23122656
-0.1821072 0.29659167 -0.06598853 -0.033568732 0.2197838 -0.063123435 0.38626894 0.18213698
0.085965134 0.22375806 0.09162197 0.10668784 -0.08343691 0.074293576 -0.00089675793 -0.08067673
00000000: fc93 3dbe cc32 74be fdd8 1abe d163 52be
00000010: dea3 c43b 7cc0 bf3d 9c0d e0be 036f 78be
00000020: 665a 553e ef71 69be 4fa3 02be 4fc7 22be
00000030: 9ece 633e d643 adbd 0368 b13d 923d 5bbe
00000040: 582b 1cbd e0b8 0e3e b38a f6bc a64b 6c3e
00000050: f73a 003e e04a c1be 82a0 c8bc 8556 28be
00000060: a304 c63d 97f5 93be 719a 3dbd 1c90 203b
00000070: 37d1 ff3d 9e63 323e 0a26 3f3d 5268 723d
00000080: d94a b1bd 33c0 a4bd 6e1a 083d f9fc 05be
00000090: 2951 3fbe b082 573e 8880 b4be 3233 2ebf
000000a0: 9d66 adbe 9320 d7bc 14f0 dbbd d878 26bd
000000b0: 52c1 8dbe 7998 cfbc a5bf 50be 39b0 183e
000000c0: c88d 053d 468f 8fbd 46da 473b abc7 89be
000000d0: af2c a03d 4b7e 86bd 49a4 3dbe 6fdc 693e
000000e0: 59a3 76be cd5f f43d 4c0b 82be c8b6 253b
000000f0: 35b8 5fbe d166 d03c 2482 a1bd cc94 7fbe
00000100: 20b7 603d a350 e63c f445 09be a7ef b3bd
00000110: 7ab8 90be 27e1 ec3d 74fc b73d bdfa 693e
00000120: 76e9 003d f463 2bbd 5e8d 7a3e 2c2d ad3e
00000130: bcad 073e 5898 6b3c 2d76 a53d a455 e83d
00000140: adcb 1d3e bf03 67bd b74f 713d dbfd 543e
00000150: 0685 96bc b29b 9b3d b9b9 eebc ded6 85bd
00000160: 680a d13e db90 9abe 46dc 433d 033f 85be
00000170: 0d6f 3a3d 1c35 12be 6bfa 70be 9df5 0d3e
00000180: e95f d7bd e7ca cdbe f90a af3d 4fa9 233c
00000190: 8c14 12be 753e b03d feae b93d 9bc8 43bd
000001a0: 2dbe 613e b5a2 03be 1065 ffbd 4dd6 83be
000001b0: 98f1 cfbe 23bb 6c3e aac8 fabc ac74 73be
000001c0: fc13 3bbe 9b7d 32bd 8700 3c3d e9ab f43d
000001d0: d9b3 693e cf6f 62bd 4125 92be dac4 ca3d
000001e0: a274 10be 0e22 ac3c c12b 34be 93a4 13be
000001f0: bb6f 56be aa2d fe3d 1035 493e 2f9a ad3e
00000200: 2f58 81bd b26d dd3c 7bb6 23ba 6023 39be
00000210: 87f0 b13d 6d02 dcbd 63a9 793e 533a 81be
00000220: f7d8 d7bd c130 76bd 0a45 e93e dfd2 a93d
00000230: 6e1e 44bc 1940 003e 2f48 ff3d c417 033e
00000240: a06e 18be ad91 2ebd 3a4a e83e a46e 8a3e
00000250: 7e43 593e 271f 26be 30ec df3d 1e76 8a3d
00000260: e506 17be 2794 01bd f436 fc3d 0429 dfbd
00000270: e565 6e3e 7ce1 ad3e 3ad3 933d 27b8 39bb
00000280: 7402 10bf 809b 24be 2e62 bf3c 2932 53bd
00000290: 496f 8dbe 05de 9c3d 26a7 933d 9109 a23e
000002a0: f876 84be 5bdf 533e 7289 7dbb 1d81 debd
000002b0: d9ba a93e b594 143e 11ba ecbc fe90 28be
000002c0: 94f8 adbd c01c 463e e6e0 253e 6f9e 223d
000002d0: 8378 ccbd c654 cebd abe5 343d 8b2c b9bd
000002e0: bde1 0fbe 7d95 b93d 3816 8ebd 979a 1b3e
000002f0: e099 253c dd13 ba3d fdca 83be 7fd9 f2bc
00000300: 6f05 343d 2139 943e 4870 7a3c 6e4e f6bd
00000310: 1fe2 ee3d e0bb a7be bbef 883e 10c9 933d
00000320: 4b70 e3be f974 b03e 24b5 68be 777c ebbd
00000330: 953a 9fbc 36ff d5bd 1578 233e b2f8 c0be
00000340: 3059 8dbe 224e 363e e22f 6cbe 7b62 8d3e
00000350: 4438 5dbe c808 8fbd 9f3d 863e 8028 93bd
00000360: 54df c33d 21d8 59bd 6eb1 3b3e 4741 72bd
00000370: 347d 0a3e 2603 b93c a468 733e 9df9 2b3d
00000380: ad73 e2bd a7dd 27bd 8cab 9dbd 14e9 8ebd
00000390: 4a04 a1bd 363b a3be ad1f 3fbd 08c0 a13d
000003a0: b884 d63d 22df 2e3c cf54 88bd 3560 d4bd
000003b0: 9cc5 9cbe ebf7 5d3e d2ef a93e a8c6 6cbe
000003c0: 4f7a 3abe ddda 973e ff24 87bd 5e7f 09bd
000003d0: 010f 613e dc46 81bd 0bc5 c53e 1e82 3a3e
000003e0: 7d0e b03d d520 653e 4da4 bb3d 277f da3d
000003f0: f8e0 aabd 3b27 983d 6814 6bba d739 a5bd

policy.mlp_extractor.policy_net.2.bias f4 [64]
-0.010999968 -0.013101043 0.0042253076 -0.05318503 -0.011694884 -0.038002517 -0.0438434 -0.008500558
0.020621983 0.014803384 -0.004342359 0.010411645 0.001010929 -0.02326366 0.045280706 -0.022058208
0.012129411 -0.007334019 0.012074792 0.023202168 -0.047549773 0.0281853 -0.05899292 0.014418211
0.0008874525 0.040872768 0.019552857 0.0064472826 -0.02455773 0.037200645 -0.014586592 -0.015796117
0.05104045 -0.02083393 0.022771934 -0.003073619 0.028341856 0.026938012 0.013431326 -9.576854e-05
-0.07100986 0.004382042 0.019154496 -0.00562762 -0.024257377 -0.011796485 -0.013793202 0.026650742
-0.04326835 0.09022179 0.019488653 -0.07014896 0.027053297 -0.018957598 -0.0021839237 -0.013119228
0.052166678 -0.0071403706 -0.03653868 0.0016258187 0.065345705 -0.016427726 -0.041912585 0.028013334
00000000: 3639 34bc c2a5 56bc 7374 8a3b 8cd8 59bd
00000010: e69b 3fbc 87a8 1bbd 2395 33bd ed45 0bbc
00000020: 6fef a83c e589 723c 594a 8ebb 9b95 2a3c
00000030: 2681 843a 6e93 bebc 4378 393d 6ab3 b4bc
00000040: 70ba 463c 3652 f0bb 59d5 453c 7912 be3c
00000050: 8dc3 42bd dce4 e63c 8fa2 71bd 5c3a 6c3c
00000060: eea3 683a 346a 273d 502d a03c ba43 d33b
00000070: 4b2d c9bc b45f 183d 9afc 6ebc dc66 81bc
00000080: ca0f 513d ebab aabc 358c ba3c c56e 49bb
00000090: 2e2d e83c 1bad dc3c 100f 5c3c 58d7 c8b8
000000a0: 9e6d 91bd 3c97 8f3b e4e9 9c3c e667 b8bb
000000b0: 68b7 c6bc 0b46 41bc e2fc 61bc a852 da3c
000000c0: 273a 31bd 34c6 b83d aba6 9f3c 42aa 8fbd
000000d0: e09e dd3c f74c 9bbc 2920 0fbb 08f2 56bc
000000e0: baac 553d c5f9 e9bb 95a9 15bd 6c19 d53a
000000f0: f8d3 853d 7093 86bc 88ac 2bbd 387c e53c

policy.mlp_extractor.value_net.0.weight f4 [64, 47]
-1.3191348 -1.3000853 2.324432 0.32055524 -1.3230348 0.5353259 0.6529296 0.3995413
0.5197096 0.29114518 0.65576935 0.48454967 0.48545238 0.4440549 0.5662323 0.6789343
0.65469843 0.6567034 0.7009836 0.42134535 0.040835034 -0.12445195 0.13778016 -0.01594975
-0.0012615824 0.034358215 -0.31146312 0.041984357 0.051542297 -0.099034056 -0.29331514 0.036878943
-0.039753523 -0.06265681 0.15835352 0.18464404 -0.1337921 0.074586146 0.26619357 0.10622159
-0.022608131 -1.0496762 -1.0882261 -1.1755714 0.18530045 1.5901242 -0.85162896 0.12966464
-0.31183678 -4.2659807 1.8986036 1.6079111 0.3556088 0.6231597 0.5052529 0.4397938
0.48175958 0.30905414 0.04090479 -0.07386558 -0.037005432 -0.04282786 -0.12041778 -0.31743976
-0.1618773 0.11971459 -0.0049832263 -0.055818368 -0.047054857 0.10712948 -0.31495133 -0.22910126
-0.06862058 -0.19087584 -0.2745329 -0.33308998 -0.2118548 -0.13012274 -0.14152706 -0.104733914
-0.108860694 -0.055122163 -0.058614675 -0.015502502 0.0007044543 -0.2546925 -0.06946526 -0.06455114
-1.0719084 -0.4857048 0.46762878 -2.2823813 1.2963048 -1.4322906 0.78875536 0.09182998
0.5239498 1.0217133 2.964748 -0.14978974 -0.44114438 -0.12708104 0.07671629 0.043223016
-0.08974592 0.18836302 0.07710698 0.4950421 0.6884546 0.7948442 0.7282388 0.56950015
0.69788486 0.8073266 0.47822443 0.09261053 -0.08966314 0.097248696 0.24846919 0.17231265
0.035445977 0.016033396 0.029211128 0.030687826 0.09032447 0.0061178464 0.027572054 0.2440908
0.17073609 0.24657844 0.3176175 0.14612842 0.22623664 0.39966127 0.6796922 -0.39326805
2.9980388 1.7499663 0.6611459 -1.6670978 0.6374899 0.69731736 0.2844497 -5.081437
-1.614437 2.7519221 -0.41152948 -0.46084726 0.08162992 0.050244298 -0.058828562 0.043670706
-0.118504144 -0.26188076 -0.22978428 -0.04725656 -0.15515327 -0.29762688 -0.15252931 0.054803368
0.28661108 0.2483628 0.10651724 -0.0041127936 -0.04698535 0.005034886 0.07616248 -0.067810096
-0.08467856 -0.4487581 -0.32729733 -0.24682093 -0.49287522 -0.33678833 -0.28522235 -0.27387017
0.030727562 -0.025363935 0.02351938 -0.0015334892 0.1476945 0.34468493 0.76364404 0.1649796
0.37094164 0.6467908 -2.1102393 -0.1962145 -2.099046 -1.4183102 2.3415163 1.4491853
-1.4593962 -0.1595088 -0.28851956 -0.35834354 -0.72946423 -0.42759332 0.032082353 0.024212826
0.034928404 -0.2853469 -0.011677118 0.10438275 0.6663782 0.5153125 0.5685763 0.23753513
0.24557467 0.16097318 0.17984895 0.08558099 -0.20183371 -0.23625742 -0.06543478 0.26316145
0.11379628 -0.005817499 0.102017544 0.07302598 0.06519491 0.29678866 0.19206859 0.33297455
0.10435349 0.084349625 -0.040916532 -0.042031225 0.030862058 -0.40030265 -1.5590273 -0.68595535
-1.7063605 2.044557 0.9292918 0.27067435 -0.34397617 -2.8256047 1.0612453 -1.5718899
0.7121501 0.8701476 1.5949279 1.8437546 1.5894288 0.865939 0.6506906 0.44214925
0.4724263 -0.0030151135 -0.19605298 -0.46934313 -0.403151 -0.06538884 -0.03640701 0.006210459
00000000: 69d9 a8bf 3269 a6bf 7ec3 1440 d11f a43e
00000010: 3459 a9bf 1e0b 093f 6526 273f ad90 cc3e
00000020: b00b 053f fb10 953e 80e0 273f e516 f83e
00000030: 378d f83e 2a5b e33e 9af4 103f a3ce 2d3f
00000040: 519a 273f b71d 283f a973 333f 94ba d73e
00000050: a342 273d aae0 febd 3e16 0d3e 0da9 82bc
00000060: ae5b a5ba 33bb 0c3d 1878 9fbe caf7 2b3d
00000070: 041e 533d 5ed2 cabd 672d 96be 600e 173d
00000080: 97d4 22bd 3752 80bd 6d27 223e 5413 3d3e
00000090: cc00 09be 9fc0 983d 864a 883e b48a d93d
000000a0: b034 b9bc ca5b 86bf fe4a 8bbf 2079 96bf
000000b0: 67bf 3d3e 3189 cb3f 5b04 5abf cfc6 043e
000000c0: 12a9 9fbe ea82 88c0 7105 f33f 08d0 cd3f
000000d0: 5b12 b63e 6587 1f3f 4158 013f a72c e13e
000000e0: 31a9 f63e 583c 9e3e c88b 273d d646 97bd
000000f0: 0293 17bd 446c 2fbd 999d f6bd 7787 a2be
00000100: 2ac3 25be ec2c f53d 554a a3bb cda1 64bd
00000110: 98bc 40bd b366 db3d 4d41 a1be 8599 6abe
00000120: f288 8cbd f574 43be 948f 8cbe c58a aabe
00000130: 77f0 58be e53e 05be 78ec 10be bc7e d6bd
00000140: 5bf2 debd c7c7 61bd f115 70bd 35fe 7dbc
00000150: 21ab 383a 0e67 82be cd43 8ebd 6333 84bd
00000160: 4b34 89bf 4dae f8be 0a6d ef3e 8912 12c0
00000170: 51ed a53f 4c55 b7bf dfeb 493f 5b11 bc3d
00000180: 9321 063f 80c7 823f 6ebe 3d40 7b62 19be
00000190: addd e1be 8821 02be 6e1d 9d3d 9e0a 313d
000001a0: b5cc b7bd 3ce2 403e 44ea 9d3d 2876 fd3e
000001b0: 903e 303f e97a 4b3f dc6d 3a3f c3ca 113f
000001c0: 95a8 323f f5ac 4e3f d5d9 f43e 97aa bd3d
000001d0: 4fa1 b7bd 532a c73d b56e 7e3e ba72 303e
000001e0: cd2f 113d 7858 833c 2d4c ef3c 0965 fb3c
000001f0: 09fc b83d 3778 c83b cade e13c f0f2 793e
00000200: 71d5 2e3e 0f7f 7c3e c39e a23e b0a2 153e
00000210: 94aa 673e 67a0 cc3e 4f00 2e3f 6e5a c9be
00000220: dedf 3f40 e5fe df3f dc40 293f 7663 d5bf
00000230: 8a32 233f 6483 323f 64a3 913e 229b a2c0
00000240: dfa5 cebf 7e1f 3040 feb3 d2be 2cf4 ebbe
00000250: 962d a73d f7cc 4d3d 38f6 70bd 0ee0 323d
00000260: 4db2 f2bd 3c15 86be 924c 6bbe 1890 41bd
00000270: 80e0 1ebe 8d62 98be a530 1cbe 7f79 603d
00000280: b0be 923e d152 7e3e b625 da3d 9dc4 86bb
00000290: b673 40bd affb a43b 13fb 9b3d 05e0 8abd
000002a0: f46b adbd 9fc3 e5be 8493 a7be a0be 7cbe
000002b0: 245a fcbe 856f acbe aa08 92be b638 8cbe
000002c0: 5eb8 fb3c 07c8 cfbc b7ab c03c 5cff c8ba
000002d0: 3a3d 173e 8b7a b03e 2d7e 433f 6af0 283e
000002e0: 10ec bd3e 1594 253f 290e 07c0 74ec 48be
000002f0: c556 06c0 308b b5bf 67db 1540 e77e b93f
00000300: 7fcd babf 4656 23be d6b8 93be ce78 b7be
00000310: 2bbe 3abf 83ed dabe c968 033d fa59 c63c
00000320: 1611 0f3d fd18 92be 6251 3fbc a0c6 d53d
00000330: c397 2a3f 85eb 033f 378e 113f 693c 733e
00000340: ed77 7b3e 27d6 243e 532a 383e 1645 af3d
00000350: 7fad 4ebe 77ed 71be ac02 86bd 19bd 863e
00000360: 060e e93d b8a0 bebb 93ee d03d a58e 953d
00000370: e984 853d aff4 973e a1ad 443e a47b aa3e
00000380: 48b7 d53d 7fbf ac3d 1898 27bd ef28 2cbd
00000390: 6dd2 fc3c 78f4 ccbe 358e c7bf c59a 2fbf
000003a0: 056a dabf 06da 0240 11e6 6d3f d495 8a3e
000003b0: a51d b0be b5d6 34c0 e3d6 873f b033 c9bf
000003c0: 784f 363f fec1 5e3f 9926 cc3f 2700 ec3f
000003d0: 6772 cb3f 2eae 5d3f a993 263f 6361 e23e
000003e0: dce1 f13e 3699 45bb 1dc2 48be be4d f0be
000003f0: cf69 cebe 96ea 85bd 841f 15bd 1b81 cb3b

policy.mlp_extractor.value_net.0.bias f4 [64]
0.26434848 -0.44708416 0.5925112 -0.05994872 -0.26614487 -0.6911815 -0.49553627 -0.6845748
-0.7048298 -0.5979022 -0.7893599 0.75778186 0.072652236 -0.17134161 0.21219671 0.14609815
-0.00066294416 -0.59657705 -0.48938787 -0.86595845 0.49930802 -1.4081619 -1.1721147 -0.52954274
0.4570504 -0.04287503 -0.802498 -0.21197553 0.5715058 -0.19008838 0.8988112 0.37561023
0.17495817 -0.062413383 -1.4954547 0.8550785 -0.18761536 0.2376294 0.33708236 0.08306951
-0.37771234 0.39988157 -0.63863623 0.48346478 -0.8853768 0.53503937 0.57994646 0.00824218
-0.50840616 0.7598333 0.28105602 0.59992474 -0.8386265 0.48703977 -0.02415811 -0.29905254
-0.041681565 0.43035161 0.42825472 0.10843017 -0.5729059 0.56133544 -0.83048594 -0.49572572
00000000: af58 873e 37e8 e4be d0ae 173f ca8c 75bd
00000010: 2444 88be 45f1 30bf eeb6 fdbe 4b40 2fbf
00000020: ba6f 34bf 1e10 19bf 7e13 4abf fefd 413f
00000030: b2ca 943d 2d74 2fbe 184a 593e c19a 153e
00000040: 6ec9 2dba 46b9 18bf 0c91 fabe 74af 5dbf
00000050: 4da5 ff3e a63e b4bf db07 96bf 1d90 07bf
00000060: 8302 ea3e ba9d 2fbd 8270 4dbf 1d10 59be
00000070: 344e 123f 87a6 42be 7e18 663f fc4f c03e
00000080: 3c28 333e 2da5 7fbd 0f6b bfbf 6de6 5a3f
00000090: 3e1e 40be 1f55 733e 0f96 ac3e 5920 aa3d
000000a0: 8363 c1be 47bd cc3e aa7d 23bf b288 f73e
000000b0: 0ea8 62bf 57f8 083f 5f77 143f 350a 073c
000000c0: e826 02bf 6f84 423f 93e6 8f3e ab94 193f
000000d0: 3ab0 56bf 475d f93e 3be7 c5bc 6a1d 99be
000000e0: 4aba 2abd 0c57 dc3e 3444 db3e a310 de3d
000000f0: f6a9 12bf aeb3 0f3f ba9a 54bf c3cf fdbe

policy.mlp_extractor.value_net.2.weight f4 [64, 64]
-0.039096233 1.5834961 0.41964304 0.36970437 0.2415738 0.26774174 -0.13433406 0.034268815
-0.22941549 -0.109625466 0.2799005 0.5255739 -1.2230037 0.26441857 -0.5268821 -0.23328577
0.25832877 0.9661741 0.7917075 0.20567353 0.23965825 -0.6929796 0.40822077 0.8430532
0.20746823 0.2494992 -0.49305332 0.34750524 -0.26778755 0.4479347 -0.42926994 0.2438748
0.7110492 -0.29286894 0.030260717 0.54561114 -0.24584325 -0.2754943 -1.509198 0.08481994
0.027277114 -0.03880395 -0.024669472 0.9592834 -0.27380943 0.798995 1.3970091 -0.3847029
1.1331344 -0.23406778 1.1720265 -0.0594169 0.402404 1.1497416 -1.1692477 -0.47324234
0.27652586 0.48328352 -0.20286459 -2.0341604 0.42337382 0.7784745 -1.4391984 -0.07662044
0.84308237 1.4782109 -0.8855138 -0.32169536 0.21068607 1.1225519 2.5020013 -0.30772415
0.1383618 0.56779015 1.5285126 -1.7311896 0.41047773 0.607203 0.26548618 0.17918552
-0.10892868 -0.543865 0.24175523 -1.4689986 -0.37378493 0.6117026 0.6006339 -1.1644826
-0.7611519 -0.10123991 1.5586334 0.45729682 -0.6630585 0.44727194 -1.9078376 0.47868654
0.22150077 0.19961704 -0.264271 -0.045635954 -1.1274468 0.27661896 1.67108 -0.96347183
-1.7591066 -1.2240969 0.9384228 0.62136966 1.1148626 0.37499192 -0.84397334 0.5485069
-0.8416528 -0.6030193 -0.36693308 -0.5753278 2.1193678 -0.44783598 0.05149874 -0.2551544
-0.59194255 -0.8360527 -0.4205221 -1.6279231 -0.59613466 -0.38472497 1.3224823 -0.51760215
-0.80888903 -1.0075918 1.536698 -0.0800536 -0.6521517 -0.8376472 0.4056822 -1.0451024
-0.07178166 -1.069559 1.1692314 2.8401208 -0.77156895 -1.544369 1.1335175 -0.3949206
1.2229064 0.3883009 0.83932686 0.006858928 -0.43165013 1.0021188 -0.20440888 1.1062175
0.54066133 0.30256122 -0.5644293 0.7331226 -0.2622712 0.7967437 2.3998134 -0.6186436
-0.0040207114 0.4420991 -0.33519047 0.77276486 1.0716012 0.22567485 0.68304473 -0.8471684
0.744819 0.4369083 -0.3538731 -0.2699798 0.5930608 -0.70285374 1.8838489 0.38626286
-0.69985276 0.5613045 -0.7197056 0.3605959 -0.15247567 1.2061745 -1.523501 0.873362
-0.8020467 -0.9940433 -0.13280155 -3.0022337 0.9978897 -0.6357005 -1.6501344 0.53501564
0.4694433 -2.040309 1.054989 -0.614773 -1.3489194 -1.2150316 0.47765154 -0.5969789
-0.19184057 -1.6006068 0.7341594 2.4672964 2.2840025 -0.9437996 0.6340167 0.21123925
0.21919551 1.6450543 -1.414637 1.4208597 -0.4792784 1.3580402 -0.24488665 0.6385351
1.0306515 0.395674 0.026866559 -0.8793655 0.6854239 -1.0799106 2.4606624 -0.9137986
-2.0292783 1.2345232 0.9384183 0.027959533 0.21715638 0.25027138 0.368049 -1.0200682
-0.17404313 1.3449314 -1.3931092 -1.4255643 -0.4024418 -2.0761373 -1.8233812 -0.26809955
-0.7619942 1.291125 0.43116376 0.43070617 -1.0074959 -0.33060697 -0.25741157 0.7569709
0.102632634 -1.2162769 -0.647566 2.6558607 1.8839104 -0.60847235 -0.7408206 1.9501424
00000000: 5f23 20bd 00b0 ca3f 74db d63e e449 bd3e
00000010: 1f5f 773e 7215 893e de8e 09be 755d 0c3d
00000020: e5eb 6abe 5183 e0bd 1e4f 8f3e 038c 063f
00000030: 638b 9cbf df61 873e bfe1 06bf 77e2 6ebe
00000040: ab43 843e 3057 773f 58ad 4a3f 159c 523e
00000050: f968 753e 1c67 31bf 5002 d13e 56d2 573f
00000060: 8d72 543e b87c 7f3e 7c71 fcbe 35ec b13e
00000070: 731b 89be b257 e53e 45c9 dbbe 51ba 793e
00000080: 5207 363f ebf2 95be 53e5 f73c 2cad 0b3f
00000090: 55be 7bbe 970d 8dbe 662d c1bf 14b6 ad3d
000000a0: 4174 df3c e4f0 1ebd a217 cabc 9993 753f
000000b0: c030 8cbe f08a 4c3f 32d1 b23f c7f7 c4be
000000c0: 8c0a 913f 77af 6fbe f704 963f 235f 73bd
000000d0: e607 ce3e bc2a 933f e9a9 95bf d24c f2be
000000e0: cc94 8d3e f070 f73e bcbb 4fbe af2f 02c0
000000f0: 74c4 d83e 1b4a 473f a737 b8bf 2deb 9cbd
00000100: 3fd4 573f 0436 bd3f 08b1 62bf 41b5 a4be
00000110: 17be 573e c8af 8f3f ca20 2040 058e 9dbe
00000120: b7ae 0d3e b25a 113f 4da6 c33f 9f97 ddbf
00000130: 232a d23e a871 1b3f ceed 873e 697c 373e
00000140: 0016 dfbd bd3a 0bbf af8e 773e 2508 bcbf
00000150: bd60 bfbe 8b98 1c3f 25c3 193f c40d 95bf
00000160: dada 42bf df56 cfbd 4d81 c73f cf22 ea3e
00000170: 34be 29bf d400 e53e 0634 f4bf 6716 f53e
00000180: 19d1 623e 6968 4c3e 874e 87be c4ec 3abd
00000190: 2d50 90bf 00a1 8d3e f3e5 d53f 17a6 76bf
000001a0: 682a e1bf 35af 9cbf 7a3c 703f 1512 1f3f
000001b0: d1b3 8e3f f1fe bf3e a30e 58bf f36a 0c3f
000001c0: 8f76 57bf 795f 1abf a7de bbbe af48 13bf
000001d0: b9a3 0740 c24a e5be 58f0 523d 99a3 82be
000001e0: 8c89 17bf 8d07 56bf ac4e d7be c95f d0bf
000001f0: 489c 18bf acfa c4be 1a47 a93f 9381 04bf
00000200: 5a13 4fbf c5f8 80bf 85b2 c43f 24f3 a3bd
00000210: 6af3 26bf 0c70 56bf 94b5 cf3e eac5 85bf
00000220: 4302 93bd 4fe7 88bf 60a9 953f 8ac4 3540
00000230: 8b85 45bf e2ad c5bf 1a17 913f 0833 cabe
00000240: 3288 9c3f 60cf c63e 20de 563f dcc0 e03b
00000250: 3f01 ddbe 6e45 803f 9050 51be 8998 8d3f
00000260: c868 0a3f 4ee9 9a3e 707e 10bf ecad 3b3f
00000270: 6948 86be 65f7 4b3f 8b96 1940 6d5f 1ebf
00000280: 2cc0 83bb d05a e23e 169e abbe ebd3 453f
00000290: 3a2a 893f 4f17 673e 05dc 2e3f 07e0 58bf
000002a0: 75ac 3e3f 72b2 df3e db2e b5be cb3a 8abe
000002b0: d5d2 173f 39ee 33bf f621 f13f 3fc4 c53e
000002c0: 8d29 33bf a7b1 0f3f a03e 38bf 07a0 b83e
000002d0: 9522 1cbe ed63 9a3f 1502 c3bf a794 5f3f
000002e0: ef52 4dbf 9f79 7ebf 21fd 07be 9924 40c0
000002f0: b375 7f3f 45bd 22bf 9b37 d3bf c9f6 083f
00000300: df5a f03e 6c94 02c0 e109 873f c361 1dbf
00000310: 64a9 acbf 2886 9bbf be8e f43e 9cd3 18bf
00000320: db71 44be afe0 ccbf dff1 3b3f 2fe8 1d40
00000330: 192d 1240 da9c 71bf eb4e 223f 1a4f 583e
00000340: ca74 603e 2491 d23f d312 b5bf bbde b53f
00000350: fa63 f5be 43d4 ad3f 91c3 7abe 0977 233f
00000360: 63ec 833f c895 ca3e 4217 dc3c 191e 61bf
00000370: f177 2f3f 833a 8abf 7e7b 1d40 b4ee 69bf
00000380: b2df 01c0 db04 9e3f 2f3c 703f 640b e53c
00000390: 3e5e 5e3e 9223 803e eb70 bc3e 9891 82bf
000003a0: 5d38 32be b626 ac3f 6751 b2bf e478 b6bf
000003b0: da0c cebe 6fdf 04c0 8e64 e9bf 5844 89be
000003c0: 0d12 43bf 9643 a53f 7fc1 dc3e 8585 dc3e
000003d0: a0f5 80bf 5145 a9be 73cb 83be d8c8 413f
000003e0: 0f31 d23d f6ae 9bbf e3c6 25bf 9ff9 2940
000003f0: fa23 f13f d8c4 1bbf 6ba6 3dbf 449e f93f

policy.mlp_extractor.value_net.2.bias f4 [64]
1.0784262 -1.2147546 -0.08732902 -0.44564593 1.389524 0.37295142 -0.20836924 0.378851
-0.3342523 0.7598447 0.6771273 -0.5579336 0.95390683 0.48701578 -0.47162968 -0.14314769
0.15848266 0.6109609 -1.0141188 0.8411813 0.7873358 -0.37403357 0.8196452 0.98120195
0.06668493 0.30216414 -0.5979606 -0.54536384 0.47704226 -0.86047953 0.30168867 0.13856561
-0.3003928 -0.27434266 0.2144762 -0.32355073 0.053117443 0.94388676 0.6175174 -0.45202225
-0.6564722 -0.31685507 -0.7061627 -1.2890826 1.2148257 -0.1325809 0.33289146 0.7674019
0.3634033 0.6557963 0.052969597 -0.43876824 0.81617904 -0.879964 -1.3146745 0.18978816
-0.96356094 1.3280442 0.6701818 0.4321534 -1.196265 -0.81062204 -1.1232251 0.18735984
00000000: df09 8a3f 147d 9bbf 8fd9 b2bd b42b e4be
00000010: ecdb b13f 7df3 be3e bf5e 55be c2f8 c13e
00000020: 1e23 abbe 2f85 423f 3758 2d3f bdd4 0ebf
00000030: 3d33 743f 225a f93e 7279 f1be 4f95 12be
00000040: 4749 223e ef67 1c3f a5ce 81bf a857 573f
00000050: d78e 493f 5481 bfbe 45d4 513f 0d30 7b3f
00000060: 1c92 883d 42b5 9a3e f213 19bf f79c 0bbf
00000070: e23e f43e 6348 5cbf f076 9a3e 25e4 0d3e
00000080: 16cd 99be a476 8cbe a69f 5b3e 71a8 a5be
00000090: ad91 593d 90a2 713f 9f15 1e3f 766f e7be
000000a0: 900e 28bf d43a a2be 14c7 34bf a900 a5bf
000000b0: 697f 9b3f 4ac3 07be c070 aa3e 7374 443f
000000c0: ff0f ba3e 44e2 273f a6f6 583d 3ba6 e0be
000000d0: 1cf1 503f 5245 61bf 4147 a8bf d457 423e
000000e0: eeab 76bf 5afd a93f 0991 2b3f 3643 dd3e
000000f0: 361f 99bf ed84 4fbf d7c5 8fbf 42db 3f3e

policy.action_net.weight f4 [2, 64]
-0.099392034 0.19744259 0.2587975 0.34639966 0.5236763 0.23246199 0.112417854 -0.21943468
0.28873533 0.0018297877 -0.2860848 0.19928105 -0.21017976 0.09297565 0.39231634 -0.2899238
-0.01653506 -0.15348698 -0.16338293 -0.22037905 -0.06623825 -0.32875898 -0.16452572 -0.2217369
0.39549202 -0.17346078 -0.04462273 -0.20235851 -0.19131468 0.38416708 0.18498082 -0.31950846
-0.32426512 0.091420926 -0.29856887 -0.2641641 0.066957384 0.09343001 0.12072955 0.07886215
0.04029307 0.39084837 0.23183326 0.13668776 0.107274964 0.18938975 -0.033464186 -0.2346786
0.46748036 -0.08678782 -0.2649103 0.37074962 0.21966036 0.112211026 -0.28673452 -0.36278415
0.25485638 0.18208979 -0.09169338 -0.012432259 0.02557672 -0.1489651 0.20060775 -0.22170697
0.07343775 0.011331744 0.0087583875 -0.036733862 0.013233009 0.13213402 0.10499759 0.007371543
0.0108368 -0.030278519 -0.03207826 -0.016299669 0.091618426 -0.0018601045 0.018250387 0.022533447
-0.11124212 0.19471833 -0.013958187 0.024609331 -0.013033487 -0.15574653 -0.012352039 -0.03661385
-0.16087973 0.1622541 -0.015013408 0.0020961163 -0.029419046 0.01363281 0.03910694 -0.004594485
-0.050173394 -0.0006197559 -0.038142372 -0.014629598 0.039743 0.004459423 0.037896052 -0.007682913
0.039966293 -0.0047418666 -0.01787134 0.017817654 -0.028145816 -0.003341375 0.03217219 -0.036991388
0.14839505 -0.10615561 -0.0018896338 0.012480562 -0.021605182 -0.011873572 0.0028332542 -0.09129558
-0.16841774 0.013015932 -0.16674311 0.18099034 0.0211901 0.2068673 0.022690551 -0.007035665
00000000: 0d8e cbbd 642e 4a3e 1b81 843e 4c5b b13e
00000010: a60f 063f 840a 6e3e 553b e63d 7cb3 60be
00000020: 1ed5 933e 7dd5 ef3a b579 92be 5510 4c3e
00000030: 5d39 57be 056a be3d b0dd c83e e470 94be
00000040: 8974 87bc b12b 1dbe db4d 27be 0cab 61be
00000050: eba7 87bd 1953 a8be 6e79 28be ff0e 63be
00000060: ee7d ca3e b49f 31be 53c6 36bd 1237 4fbe
00000070: ffe7 43be 8cb1 c43e 9d6b 3d3e 9d96 a3be
00000080: 1406 a6be e53a bb3d 05de 98be 8440 87be
00000090: f420 893d 3c58 bf3d 0e41 f73d 7b82 a13d
000000a0: 590a 253d 471d c83e b365 6d3e e0f7 0b3e
000000b0: fab2 db3d 63ef 413e be11 09bd 964f 70be
000000c0: 9659 ef3e d0bd b1bd 53a2 87be e5d2 bd3e
000000d0: a5ee 603e e5ce e53d dece 92be d8be b9be
000000e0: 897c 823e bf75 3a3e bdc9 bbbd acb0 4bbc
000000f0: 4586 d13c 4f8a 18be 1e6c 4d3e 2707 63be
00000100: 8866 963d c7a8 393c 577f 0f3c 3f76 16bd
00000110: 43cf 583c 244e 073e fa08 d73d fc8c f13b
00000120: d58c 313c a80a f8bc 7e64 03bd e286 85bc
00000130: 71a2 bb3d c0ce f3ba d681 953c 1098 b83c
00000140: e9d2 e3bd 3e64 473e e1b0 64bc 8299 c93c
00000150: 688a 55bc 057c 1fbe 3560 4abc 68f8 15bd
00000160: a8bd 24be f025 263e ccfa 75bc ff5e 093b
00000170: 3600 f1bc 265c 5f3c 992e 203d 558d 96bb
00000180: 9e82 4dbd 1d77 22ba 2d3b 1cbd fbb0 6fbc
00000190: 8ec9 223d 5a20 923b e438 1b3d f2c0 fbbb
000001a0: b2b3 233d a961 9bbb eb66 92bc 54f6 913c
000001b0: 0e92 e6bc f8fa 5abb fcc6 033d 4884 17bd
000001c0: dff4 173e 1d68 d9bd 97ad f7ba 457b 4c3c
000001d0: 5afd b0bc 5f89 42bc 1eae 393b 2df9 babd
000001e0: b375 2cbe c740 553c b5be 2abe 8855 393e
000001f0: dc96 ad3c 06d5 533e 89e1 b93c 708b e6bb

policy.action_net.bias f4 [2]
-0.11395496 -0.020383658
00000000: 3861 e9bd a1fb a6bc

policy.value_net.weight f4 [1, 64]
137.20642 -135.96855 138.02779 137.19322 136.0252 -137.94614 -135.21806 136.1566
-136.22029 -138.33516 135.54784 136.81264 134.83197 135.3894 -136.79709 -137.83853
-136.5947 134.96304 138.59663 134.81358 135.11142 -138.09042 137.77867 135.78703
-138.91481 135.83678 -135.09476 -137.98398 135.37556 -135.60393 137.1674 138.72699
139.01993 136.96689 135.297 136.14217 136.40118 135.80002 137.9108 138.93211
-137.44647 -138.3479 137.13329 -136.55672 135.94147 135.95319 135.75742 135.8626
137.9182 -137.4404 138.05528 -137.44868 137.56702 -137.36371 -136.30042 135.12408
-137.47949 137.74136 138.21931 137.93762 138.86249 -135.50592 -135.79588 -138.73344
00000000: d834 0943 f3f7 07c3 1d07 0a43 7731 0943
00000010: 7406 0843 36f2 09c3 d337 07c3 1728 0843
00000020: 6538 08c3 cd55 0ac3 3f8c 0743 09d0 0843
00000030: fcd4 0643 b063 0743 0ecc 08c3 aad6 09c3
00000040: 3e98 08c3 8af6 0643 bd98 0a43 47d0 0643
00000050: 861c 0743 2617 0ac3 57c7 0943 7bc9 0743
00000060: 31ea 0ac3 37d6 0743 4218 07c3 e6fb 09c3
00000070: 2560 0743 9b9a 07c3 db2a 0943 1cba 0a43
00000080: 1a05 0b43 86f7 0843 084c 0743 6524 0843
00000090: b466 0843 cecc 0743 2ae9 0943 9fee 0a43
000000a0: 4c72 09c3 1059 0ac3 1f22 0943 858e 08c3
000000b0: 04f1 0743 04f4 0743 e6c1 0743 d3dc 0743
000000c0: 0feb 0943 be70 09c3 270e 0a43 dd72 09c3
000000d0: 2891 0943 1c5d 09c3 e84c 08c3 c41f 0743
000000e0: c07a 09c3 cabd 0943 2538 0a43 08f0 0943
000000f0: ccdc 0a43 8481 07c3 bfcb 07c3 c3bb 0ac3
